vq_distance/model.pt (torch, 71405 bytes, 5 tensors)

0.weight f4 [128, 2]
00000000: 5608 aabb 195d be3e b9d5 3dbf db69 1abf
00000010: 2e05 24bf a2bf a23c e83a 73bf e665 2b3e
00000020: 73ef 7bbd 0dcd 3b3e 60ae 6dbe e58a c7bd
00000030: 3ef1 61bf cb21 16bf e8cd 9abe a116 ae3d
00000040: 2a90 cd3e 638f e93e 0e4a 63bf dffb 4ebe
00000050: 7c57 723e 505f 4f3f 4f8c b2bd 832f 0f3f
00000060: ae28 cc3d f52c 3b3e 0738 0d3f 63b7 31bf
00000070: 3452 4ebf 3b3a e7bd d1fe 39bf e078 523e
00000080: 7e0f 28bf 0421 b4be 5617 40bf c7dc 3abf
00000090: c58b 4abf 249f 893e d0ea 213f a65f 243f
000000a0: f4a2 9e3d 8ef9 cebe b530 943e fb03 62bf
000000b0: 2b7f 7fbf 3c5a b8be c15f 2a3f 970e b73e
000000c0: 2c2b 3cbf b1ee 48be 4627 353f 1bd4 1d3f
000000d0: 41d6 8c3e ccc1 bf3d 8113 d53e e7c6 eebe
000000e0: 370b b1bb 25ca 3cbf 69a9 3dbf 8526 c8be
000000f0: 9c1b 0e3f d60c 9c3e ddf9 d4be 7182 873e
00000100: a0ff 0c3f bc73 56be 90da 423e fb5d 563e
00000110: 80e5 313f 924c 143f f880 49bf 38fd bdbe
00000120: fd80 d13e 9b4b 203f 599d 2a3f 4293 163f
00000130: 8cf8 553e 6e40 36bf f3a0 fa3e bf64 30bf
00000140: e27a 04bf 3c50 273f e536 383f c27a 51bf
00000150: 9f02 503e 9822 2cbe 2033 a1be 8dd3 16be
00000160: 8346 e93e 0ecb 07bf ea31 ea3e bc6d 9b3e
00000170: b25a 383f 531c a33e d50e 7ebf 960d 0cbf
00000180: 67df 4c3f cd1d f63d 877d 64bf 1bf4 71be
00000190: 5c2a 8c3f f611 ed3e 6927 0cbf 056b c2be
000001a0: d148 53bf 8973 ee3c dbe4 26bf 5315 e6be
000001b0: c16b 1cbd 561f d53d ca47 08bf 923b d23e
000001c0: cf66 b9be 6813 303f 91a9 283f d436 1cbf
000001d0: 9325 44be 1152 b83d 0ac6 063e 32ff 5b3e
000001e0: dba4 f53e 7b0c a2be db3d 09bf 2cd9 c33e
000001f0: 1501 69bf 8d6f 0bbf 5663 d4be e71d d9be
00000200: 01dd 0bbf 9f00 18bf dff1 65be cef2 f33d
00000210: 872f 4cbf 007d 9a3c 6763 273f 6297 c5bd
00000220: a3f5 043e 930a dabd 5e3c 643e c882 fd3e
00000230: d1b7 533f d8f3 c33e 42de 503f 7293 afbd
00000240: b29d 47bf 0116 b1be a270 2d3f ab1e 98be
00000250: bd52 0bbf 707f 1cbf 978b 5bbf 5749 b4be
00000260: 25e2 1cbe dc7f df3e 8813 823e 13f0 36bf
00000270: c92a 1d3f f77f 3abf 07e9 32be 9a11 aabe
00000280: de4e 08be 1fdf c4bd 927c 59bf 67e4 24bf
00000290: 4717 2ebd 40d1 513c a515 bbbe 72b6 a63e
000002a0: 27b1 88bf e2e7 79be 9522 5a3f 301d adbe
000002b0: a7bf 5d3f db28 1d3e a43d ffbe d302 f93e
000002c0: 71cb a3bd 7c69 9ebe 98a4 f73e 7c20 1ebf
000002d0: 656c e53d 1315 4fbe 117f 663f 4d37 103e
000002e0: 8000 133f edaa ac3e 9eae cfbe e984 aabe
000002f0: a63a 5abf 8090 fe3d 823f 3b3f cc10 f03e
00000300: d9ec 5ebf 6d29 1cbe e7ea 32bf 7fff ddbe
00000310: 60f3 14bf 160a 943e 1c5c fbbe a8e7 123d
00000320: a4e3 15bf d4bf 363e 59ec 3abf 051c 19bf
00000330: eb19 5bbf 723e e43d 80cc 41be ab75 273f
00000340: e051 803e 25bd b33d d60f a9bb 754c 0cbe
00000350: a217 b23d cb0f 22be d9e2 b73d 5ed4 143e
00000360: 914a 37bf d9db f0be 2b64 f93e 7964 1fbf
00000370: 14d0 71bc 2459 3c3f 5730 803e 03c1 a03c
00000380: c40b 7dbf 9986 043e 0f6f 70bf 9224 91be
00000390: 911f 6ebe 9e33 d2bd 051c 2b3d a99a 213f
000003a0: 2bd8 89bd 582d 503f 4f28 183f ad6d 01bf
000003b0: dfcb 223f fcac 57bf 900b 24bf 2fc2 0a3d
000003c0: 87dd ba3e 0697 173f 453a 59be 1e54 c23d
000003d0: 60b5 8c3e ef1b 35bf 1c94 d53e 2018 1ebf
000003e0: 4d33 173d c8c4 cbbd 7521 48bf c8c6 37bd
000003f0: 4c5c 683f 5a3c 1cbe 62a7 cebe 679b 8cbe
-0.005188982 0.37180403 -0.7415424 -0.6031777 -0.64070404 0.019866768 -0.9501176 0.1673809
-0.061507653 0.1833994 -0.2321105 -0.09743289 -0.8825873 -0.58645314 -0.3023522 0.0850041
0.4014905 0.45617208 -0.88784873 -0.20213269 0.23666185 0.8100481 -0.08718168 0.5593187
0.099686965 0.18278868 0.55163616 -0.6942045 -0.8059418 -0.112904035 -0.72654444 0.20553923
-0.6564864 -0.3518144 -0.7503561 -0.7299313 -0.7911952 0.26879227 0.6324892 0.6420845
0.077459246 -0.4042477 0.2894341 -0.88287324 -0.9980342 -0.36006343 0.6655236 0.3575332
-0.73503375 -0.19622304 0.7076305 0.6165177 0.27507213 0.09363136 0.41616443 -0.46636125
-0.0054029482 -0.7374595 -0.74086624 -0.39091888 0.5551088 0.30478543 -0.4159688 0.26466706
0.5507755 -0.20942587 0.19028687 0.20934288 0.69490814 0.5792934 -0.78712416 -0.37107253
0.40918723 0.62615365 0.66646343 0.5881845 0.20895594 -0.7119206 0.4895092 -0.68903726
-0.51750004 0.653568 0.7195876 -0.8182794 0.203135 -0.16810071 -0.31484318 -0.14729138
0.4556161 -0.5304421 0.45741206 0.30357158 0.7201339 0.31857547 -0.9924138 -0.5470823
0.80028385 0.12017403 -0.8925404 -0.23628275 1.0950427 0.46302766 -0.54747635 -0.37972274
-0.82532984 0.029107826 -0.65192956 -0.44938144 -0.0381887 0.104063675 -0.5323454 0.41061074
-0.3621125 0.6877961 0.6588374 -0.6102116 -0.19154958 0.09000028 0.13161483 0.21484068
0.47977337 -0.31650147 -0.5361001 0.38251626 -0.91017276 -0.5446709 -0.41482037 -0.42405626
-0.546341 -0.5937595 -0.22455548 0.11911546 -0.7976002 0.018858433 0.6538605 -0.096480146
0.12984328 -0.10646548 0.22288653 0.4951384 0.82702357 0.38271976 0.8158914 -0.08573045
-0.77975 -0.345871 0.6774999 -0.29710898 -0.54423124 -0.61131954 -0.8575987 -0.35212204
-0.15320642 0.43652236 0.25405526 -0.71460074 0.6139341 -0.7285151 -0.17471705 -0.33216554
-0.13311335 -0.096128695 -0.84955704 -0.64411014 -0.042502668 0.012806237 -0.3653995 0.3256107
-1.0679063 -0.24404863 0.8520902 -0.3381133 0.86620563 0.15347616 -0.49851716 0.48634967
-0.07997788 -0.30939853 0.48367763 -0.6176832 0.11202315 -0.20222883 0.9003764 0.14083596
0.5742264 0.33724156 -0.4056291 -0.33304527 -0.8524574 0.12429905 0.7314378 0.46887815
-0.8708015 -0.15250178 -0.6988968 -0.4335899 -0.5818386 0.28913945 -0.4909371 0.035865456
-0.5855048 0.17846614 -0.7301689 -0.5980838 -0.8558642 0.11144723 -0.18925667 0.6541392
0.25062466 0.08776311 -0.0051593585 -0.13701041 0.08695914 -0.15826337 0.08978815 0.14534137
-0.71598154 -0.4704273 0.48709235 -0.62262684 -0.014759082 0.7357352 0.2503688 0.019623285
-0.9884608 0.1294197 -0.9391946 -0.28348213 -0.23254229 -0.102637514 0.04177477 0.6312662
-0.06730684 0.8131919 0.59436506 -0.50557977 0.6359233 -0.8424833 -0.6408014 0.033876594
0.36497137 0.5921482 -0.21213634 0.094887 0.27482128 -0.7074575 0.4171456 -0.6175556
0.03691416 -0.099496424 -0.7817605 -0.044867307 0.90765834 -0.15257397 -0.40362078 -0.27462313

0.bias f4 [128]
00000000: e0db 2fbf b5bc 733e ef1e afbe fc9a 13bf
00000010: 766f ccbe fb61 043f 348f a53e 3fd0 253f
00000020: 117e 863e ef35 b8be daa6 4cbe 9208 a73e
00000030: e925 323f 91ba a73d 903b b9be 42fd f4be
00000040: 9f4e e6be 8845 513e bf66 0bbf 4df6 99be
00000050: 665d 263f 29c9 b5be 6b37 adbe 2e06 bc3e
00000060: c60b 91be 5fd9 7bbe a86b 0fbf 4580 213f
00000070: ec25 743e 6e75 d33e b93a 64be 44fb 713e
00000080: 86fe 73be f325 c23d 77ac 60be 4a5e ab3e
00000090: 5c5d 913e 3bb0 eabd e9a5 8bbe 4362 a4be
000000a0: f2da 1e3f 61ad eabe c452 ab3e 2c9e 6abe
000000b0: 04b9 94be c18b 7e3e 350b a0be 41b2 a13e
000000c0: 24ac b53e a8b2 b0be 7f6f ac3e a06a 483e
000000d0: ed52 913e cc61 98be 5c74 11bf 7299 9bbd
000000e0: b3f8 733e 61ac b9be c927 c33e 4577 213f
000000f0: d1f1 78be adbd 9dbd 061f b43e 15a6 da3d
00000100: 8000 053e 39cf a43d e99c d8be e042 2ebe
00000110: de5c 193f fa4f 3d3f 5f8f db3e debd e63d
00000120: a123 ad3e 888f a0be cf89 c4be 9e6a d4be
00000130: 3434 583f d909 113f 36bc c8be f1e6 8e3e
00000140: adb2 2b3f 9515 143f 9717 443f 4997 2f3f
00000150: fd35 ddbe e596 c7be ed38 153f 62ed 073f
00000160: 1d8c d5be 7c56 393f 2fd2 a03e 160f cb3e
00000170: a440 65be 6360 043e 7a1d 01bf d70f d83e
00000180: 3755 c0be 24e9 873e 7239 97bd 53cc 9d3e
00000190: 0834 c9be fdb3 6e3e 76c9 ffbe ac2a e33d
000001a0: 4a18 f0be a70a 2fbf 4d7c 0ebf 5d85 373f
000001b0: 6e20 873e 9272 3e3f b9e0 2c3f 0674 1ebf
000001c0: d4be 13bf 3713 b1be 3475 e6be 6557 133f
000001d0: c293 e1be 35b5 b0be 61ea dbbe 90d0 b2be
000001e0: 2c02 333f 435b 393f 2429 193f 39cf 243f
000001f0: 72c0 363f 1844 c4be 05f1 0b3f 0640 343f
-0.6869488 0.23802455 -0.34203288 -0.5765836 -0.39928788 0.51712006 0.32335818 0.64770883
0.26268056 -0.35978648 -0.19985524 0.32623726 0.69589096 0.081898816 -0.36178255 -0.4784947
-0.44981858 0.2043668 -0.54453653 -0.30070725 0.64986265 -0.35505036 -0.33831343 0.36723465
-0.28329295 -0.24594639 -0.56023645 0.6308635 0.23842591 0.4130053 -0.22288026 0.23631006
-0.23827562 0.094798945 -0.2194079 0.33470374 0.2839154 -0.114593945 -0.27275017 -0.32106218
0.62052834 -0.45835403 0.33461583 -0.229119 -0.29047406 0.24858 -0.3125855 0.3158131
0.35482895 -0.34511304 0.33678815 0.19571924 0.2838358 -0.29762113 -0.56818175 -0.07597627
0.2382534 -0.36264327 0.3811629 0.63072616 -0.24310996 -0.077021934 0.3517992 0.10676209
0.12988472 0.08047337 -0.42307213 -0.17017698 0.5990733 0.7395016 0.4288282 0.11266683
0.33816245 -0.31359506 -0.3838639 -0.41487592 0.84454656 0.5665565 -0.39206094 0.2791057
0.6706951 0.5784543 0.76598495 0.6859022 -0.43205252 -0.3898231 0.58289987 0.5309659
-0.4170846 0.7239759 0.31410357 0.39659947 -0.2238794 0.12927394 -0.504356 0.42199585
-0.37565014 0.2654506 -0.07384004 0.3081995 -0.3929751 0.23310848 -0.4995839 0.110921234
-0.4689353 -0.6837563 -0.5565842 0.7168787 0.2639193 0.7439357 0.675304 -0.6189579
-0.57713056 -0.34584972 -0.45011294 0.5755523 -0.44058043 -0.3451325 -0.42952254 -0.34924746
0.6992519 0.7240488 0.598284 0.64378697 0.713874 -0.383332 0.5466464 0.7041019

2.weight f4 [128, 128]
00000000: fbc9 ea3c 9e56 c63b 5a03 b23e fda4 663f
00000010: a165 f8bc 6dfc e03d b480 90bd e0fd d73c
00000020: a71a 8d3c 37e0 243e f7cb c0bd 9b93 c83d
00000030: 990d fd3d 2af8 89bc f734 2b3e 56e2 313e
00000040: 0552 733e eaa3 acbd e699 9c3d 72dd 7fbe
00000050: 27ed fa3c aaf9 60be 63ee a13e 7ddf 133e
00000060: 2be5 eb3d 5134 19be 88a0 49bd f8b8 b5bc
00000070: a9b5 043d 764b e2bc 274e 6abe 2d55 a7bc
00000080: 4c6c 07be d1ac 243d 34b3 40be 18ef 0c3c
00000090: 4c04 853d 2f24 07bd f1f0 70bd 9f2e a9be
000000a0: 4077 903d 96be 48be 9bff 74bc dd61 083e
000000b0: c596 3bbe b0bb e73d 6f67 59be 0c45 4fbd
000000c0: 09c7 673e ec14 873e 6222 9b3d 550a c7bd
000000d0: fdc4 b8bb e247 f73c 314c 303d f243 ddbc
000000e0: f086 7dbd f297 2abe 7654 e73c 20ad fd3d
000000f0: 44e5 94be 0a3c e43d 2a3b edbd b5be 64bd
00000100: 0287 7abd 9486 81bd a322 c83e 27ba e53c
00000110: 6f81 343e c988 cb3d aab2 813c 2e45 e63d
00000120: f003 84bd dc1d c9bd b223 ed3d 7f48 ed3d
00000130: b6ea 13bd bc75 46bd 9a01 f8bd 80d1 c3bd
00000140: ee17 0f3e 7570 64bb a50c ac3d f250 7bbc
00000150: 77ad b13d 141b 00be f8ae cc3d eaf2 d73d
00000160: 400e 4c3d 6b6f 9dbc e49c f53c 336d 7b3c
00000170: 8ba1 92be 07de 31bd c472 583d d413 d83d
00000180: 9c83 9e3d ba95 04be 7399 30bd 0e77 4a3d
00000190: c2cc d53d 60fe 8bbc 8836 903e cf39 9b3d
000001a0: 2e93 363b 126e dbbc de50 9abc 5041 a33d
000001b0: ba35 05bd f1b9 91bd 3db1 f13d 0c56 1abc
000001c0: f199 bb3d afb9 0f3e 4ffe 9c3d b49b 003e
000001d0: bfe0 053f dea6 4ebd 0b0b abbe 6f11 bd3e
000001e0: f730 043e 48ae 193c cff4 3c3c 2bc2 d73c
000001f0: ea9b 5c3d 092f 453e 9694 4b3d 5913 c63d
00000200: 41ea c4bc a1c5 babd 9b66 943e 611b 453f
00000210: d55f 2dbd 9553 4d3d bb69 92bb e125 003d
00000220: 679e b73d 13bd 253e 569f 713c 33d8 c9bc
00000230: c9c9 25bb 66d2 27bd 1e51 8b3e 83d0 813d
00000240: 0d21 353e 0484 e7bd b43e 3d3e 65b0 70be
00000250: 2ca8 a5bc 1a1d b9be e79d fb3d 0326 ab3d
00000260: 26c4 bf3d 9732 78be ca8e febc 3185 943c
00000270: 012a b4bd ae6e b93c 0307 31be 10d6 f5bc
00000280: 3b3f cebd 47a4 ff3d 51f4 7bbe 0596 33bd
00000290: 2e20 d43c 16a6 dd3d 1ad0 2bbe cb23 f6be
000002a0: e4dd e63d 8bed 45be e8c5 503d 5156 703e
000002b0: 7fee 42be 8a55 773d dceb a7bd a4df 66bd
000002c0: 4e78 983d 7b9e 383e a01a de3d 70e3 9e3c
000002d0: 196d 90bd 3ccd 2d3e 4313 9ebc 45f9 033d
000002e0: 3813 ba3d afdb 6bbd d44f e93d e449 d93d
000002f0: 01d2 68be 2f2f a5bc 9b1d 81bd aa89 d3bb
00000300: 6b76 c4bd acdd 80bd 0b77 a53e b203 8c3d
00000310: 15d7 283d 57bc b1bc ddd6 783b 71e5 aa3d
00000320: 8f80 4ebd 9cdb 33be 4a0f 4b3e 62e6 293e
00000330: 071b e73d 92a0 6b3d e3c8 33be 89b0 8cbd
00000340: 1a66 e4bc f6b3 903d ddcd b43d abdc 9d3d
00000350: 9b8a 5c3d 69e5 e2bc 9aa1 283e 325b cb3d
00000360: 67ad 95bd f866 07bd 8cfb 5fba 12d7 4a3e
00000370: 7ed1 72be 6891 84bd 59dc 063e 25cd 0b3d
00000380: 3e23 943d 97e1 8abd 6e1f 9f3c fecd 6abd
00000390: 587f 2b3e e85b c7bd f6dd 5b3e 1f77 d43d
000003a0: f6f5 323d 1df7 483c baf7 963d 680b 843d
000003b0: 5ec5 afbd 6fee a33d 2f7c 813d 3b1d adbd
000003c0: 5b08 eb3d f8db c63d 0190 9b3d 0248 ef3c
000003d0: d3f3 ed3e 637a 06be 7d6e afbe 4588 9c3e
000003e0: 233d a13d 605c 523d 7149 ad3c cf6a afbc
000003f0: 3c0c f03c e789 683d 13e0 4c3d 0dd8 933d
0.028660765 0.006052806 0.34768182 0.900955 -0.030321898 0.109856464 -0.07055798 0.026366174
0.017224623 0.16101156 -0.09413903 0.097937785 0.12356109 -0.016841967 0.16719423 0.17371497
0.23761757 -0.084297016 0.07646541 -0.24986818 0.030630661 -0.2197024 0.31627187 0.14440723
0.1151832 -0.14961363 -0.04922536 -0.022182927 0.032399807 -0.027623873 -0.22881375 -0.020426357
-0.13224906 0.040203873 -0.1881836 0.008601926 0.0649496 -0.03299349 -0.05882353 -0.33043382
0.07053995 -0.19603953 -0.014953519 0.13318582 -0.18319233 0.113150954 -0.21230863 -0.050602958
0.2263452 0.2638315 0.075749174 -0.097187676 -0.005638717 0.030185644 0.04304141 -0.027009938
-0.061896265 -0.16659525 0.028238516 0.123865366 -0.29081166 0.11144264 -0.1158355 -0.055845935
-0.06116391 -0.06324497 0.39088926 0.028042866 0.176275 0.09938199 0.015832264 0.11243664
-0.064460635 -0.09820148 0.11579074 0.11586093 -0.03611251 -0.048452124 -0.121096805 -0.09561443
0.13973972 -0.0034857069 0.08400849 -0.015339123 0.08675664 -0.1251033 0.0999431 0.10544379
0.049818277 -0.019218167 0.029982038 0.015345859 -0.28638873 -0.043424632 0.052843824 0.10550657
0.07739946 -0.12947741 -0.04311509 0.049429946 0.10439445 -0.017089069 0.28166604 0.075793855
0.0027858722 -0.026785884 -0.018837389 0.07971442 -0.03252194 -0.07115544 0.11801384 -0.009419929
0.09160221 0.14035676 0.07665693 0.12559396 0.5229606 -0.050452106 -0.33406863 0.36927363
0.12909304 0.009379931 0.011532976 0.026337704 0.05385963 0.19256224 0.04970225 0.09671659
-0.024037482 -0.09119726 0.28984532 0.769949 -0.04232772 0.05012854 -0.0044681705 0.031286124
0.0896576 0.16185407 0.014747461 -0.024639225 -0.0025297275 -0.040972136 0.27210325 0.063385986
0.17688389 -0.11304477 0.1848095 -0.23504789 -0.020221792 -0.36155015 0.12285977 0.083568595
0.09363584 -0.24238048 -0.031073947 0.018129917 -0.08797074 0.022635784 -0.17287831 -0.0300093
-0.10070654 0.12482505 -0.24604918 -0.04384424 0.02589425 0.10822694 -0.16778603 -0.48074183
0.11272791 -0.19328897 0.050969988 0.23470427 -0.19036292 0.06038431 -0.081992835 -0.056365624
0.07444821 0.18029206 0.10844922 0.01939556 -0.07052059 0.16972822 -0.019296294 0.032220144
0.09085697 -0.057582553 0.11392179 0.10609797 -0.2273636 -0.0201641 -0.06304475 -0.00645562
-0.09592899 -0.062922806 0.32317385 0.06836642 0.041220743 -0.021696253 0.0037969865 0.08344544
-0.05041557 -0.17564243 0.19830051 0.1659179 0.11284452 0.05752618 -0.17557101 -0.06869609
-0.027880717 0.07065575 0.08828328 0.07708105 0.053843122 -0.027697282 0.16467896 0.099295035
-0.073084645 -0.033057183 -0.00085442583 0.19808605 -0.23712727 -0.064730465 0.13169993 0.034131188
0.072332844 -0.06781309 0.019424167 -0.057325356 0.16747797 -0.097343266 0.2147139 0.10374283
0.043691598 0.012265948 0.07371469 0.06447488 -0.08582567 0.08004462 0.06322514 -0.08452841
0.11476203 0.097099245 0.07595826 0.02920914 0.46475086 -0.13132624 -0.34263983 0.30572715
0.07872989 0.051357627 0.021153184 -0.021413235 0.029302709 0.05677214 0.05001838 0.07218943

2.bias f4 [128]
00000000: bd89 833d 0ca8 eb3b 233f a43c 1370 0d3e
00000010: 7484 123e 565d 4cbc 5e15 1b3c eb6f 88bb
00000020: e6a7 d03d 9ebc afbd 5694 083d fccc 46bc
00000030: 7a15 a0bc 103f 84bd e3cd 9ebd c0ee 583d
00000040: d8b5 18bd 7282 39be 695f af3d 1bb9 633d
00000050: 131b 263e 5582 ba3d f8e0 d1bc 1e20 f93d
00000060: 0698 f13c 61e0 713c 5eab 6dbc 2e94 69bc
00000070: 5a8c 5dbd 142d 5e3d 8f5d 12be 6aea 4c3d
00000080: 76fe 10be 4c1d 2dbc 35f7 8f3d 0ff8 36bd
00000090: 3907 ba3d fa7d cfbb bc9d 893d b14c 9fbd
000000a0: 6f03 963d 1bbd 8d3d f408 963d 021b a83d
000000b0: b1f0 563d 4de9 4b3d 5b10 65bd b816 aebc
000000c0: c1a2 f23d 5901 dc3d c170 8e3c 3eab 3d3d
000000d0: 5415 1a3d 9d42 f9bd 8008 92bc 6cf7 8bbd
000000e0: 1b54 d73c 623e 41bd 565e a73d 8723 9fba
000000f0: 3df2 2dbe 76a7 24bd 9bdd ec3d b09d 09bd
00000100: d8ab 9f3d ef74 853c ef3d af3d 7e83 e63d
00000110: 5ef8 7cbd 63df 9f3d 3dd3 9c3d 4cd0 b33d
00000120: bd7a 55bd 06d6 283c d76c 8fbd 7342 50bc
00000130: 6544 523e e5ef 22bb 8341 07bd f547 813d
00000140: db90 983d f513 aa3c e85d f63b 4640 153e
00000150: 518a 443d e561 a53c 6a9d 80bd 76b6 2ebd
00000160: 7ff9 723e 0777 0cbb 64cd 3c3d e234 2e3e
00000170: 74bf d1bc 99be 28bd 980b 043e 9c2b 1f3e
00000180: c86a 34be 9e96 293d ce0e b8bd e1a1 e6bd
00000190: fc07 233d a03c 61ba b221 c23d 4bee 263c
000001a0: df0b 173e 5624 87bc ddf0 33bb 861a 523c
000001b0: ec3d 3f3d 2905 8e3d 04b1 4cbd 345e 763e
000001c0: 3706 8d3c 527c dc3d 140e e33d 2048 763c
000001d0: 6239 823d e478 cabc ccac 2fbd e4b8 633c
000001e0: 028c e0bb c81d ec3d ac8e 093e a017 0f3e
000001f0: 88a3 263e 40ee 65bd 36c4 b8bc d4d3 00bc
0.06422756 0.0071916636 0.020049637 0.13812284 0.1430834 -0.012473425 0.009465544 -0.0041637323
0.10188274 -0.08580898 0.03334459 -0.012133833 -0.01954149 -0.06457341 -0.077541135 0.052962065
-0.037282795 -0.18116167 0.0856312 0.055596452 0.16221265 0.0910689 -0.025619969 0.12164329
0.029491436 0.014762969 -0.014506189 -0.01425652 -0.054088928 0.05424221 -0.14293502 0.050028242
-0.14159569 -0.010566067 0.07029573 -0.04467016 0.09083409 -0.0063321562 0.067195386 -0.077782996
0.07324874 0.06920835 0.073259264 0.08208276 0.052475635 0.04978304 -0.0559238 -0.021251068
0.11847449 0.107424445 0.01738775 0.046305887 0.037617996 -0.121709086 -0.017826319 -0.06834301
0.026285222 -0.047178634 0.0817229 -0.0012141325 -0.16986938 -0.040198766 0.115657054 -0.03359765
0.077964485 0.01629111 0.08556735 0.11255549 -0.0617603 0.078062795 0.07657478 0.08779964
-0.052119005 0.010304933 -0.070031814 -0.012711155 0.20533903 -0.0024862227 -0.03302146 0.06312553
0.07449504 0.02076147 0.0075185187 0.145753 0.04798347 0.020188281 -0.06280024 -0.042654477
0.23727988 -0.002143325 0.046094313 0.1701236 -0.025603987 -0.041197393 0.12895048 0.1554398
-0.17618859 0.041403405 -0.08987199 -0.11261345 0.039802536 -0.00085921027 0.09479083 0.010188649
0.14750622 -0.016496819 -0.0027456798 0.0128237065 0.046689913 0.06934578 -0.049973503 0.24059373
0.017214878 0.107659 0.110866696 0.015031844 0.06358601 -0.024715848 -0.0428894 0.013899062
-0.0068526277 0.11529118 0.13433331 0.13973856 0.1627332 -0.056135416 -0.022554498 -0.007863004

4.weight f4 [1, 128]
00000000: 1318 44be b701 5dbe bbc7 72be 73f2 b23e
00000010: f658 5fbe 777b 70bd e59b 6c3e 9ef3 87be
00000020: 1b93 4fbe d293 483d aa18 45be 63e0 413e
00000030: 1f0a 55be c8c0 57ba 450a 833c 904f 80be
00000040: 0b82 5dbd 852a 023f bb67 61be f9a6 763e
00000050: 9097 7fbe 848f 5b3e 3e08 b1bc cda9 41be
00000060: ad70 5b3e 5d58 583e 10ae 923d 58d4 413e
00000070: 6af1 b9bc c3e6 473e 8a14 e03f 0611 553e
00000080: a1dc 683e 9970 ef3c 27a2 2cbe 57b3 5a3d
00000090: 8a37 713e 2c92 81be 833f 683e a8cf cfbb
000000a0: 6366 423e 5f6d 263d 7982 31be 7b03 aabe
000000b0: 3995 9abe 2b2c 2abd 31b6 ac3d 24fd da3b
000000c0: 9433 6a3e c24c 50be 927f 6f3e 156e 36be
000000d0: 9544 ce3d 68f1 c6be 44a0 533e 2cdb 023d
000000e0: f730 263e f196 9dbd 588f 333e 5bfa aebe
000000f0: 1114 c6be bfef 5dbd b1d4 97be d3c8 653e
00000100: 918e 2e3e 4c7b 603e 4ebe 3f3e e45b 43be
00000110: 27d1 953c 3740 923f f050 8abe d8f6 66be
00000120: 3361 4f3e 8476 833d d197 553d f20a 91bc
00000130: 79fd 8cbe 1afc 493d 6f38 473e 0103 0abd
00000140: d44a 8d3e 2df8 72bc ea45 92be 0feb 3fbe
00000150: c2f9 403e cb23 97be 315c 463b e715 32bd
00000160: 9a37 8fbe b8e2 4e3d f40d 2fbe 7478 8abe
00000170: c5bf 663e 2e41 f03c 28b0 81be 6e77 40be
00000180: 1855 c4be 808e 2e3e be42 7f3d 970f 2b3e
00000190: ed00 323e 7fa2 eb3c 5cc2 603e a7c8 cf3b
000001a0: 30d6 81be 04cc 27bd f458 643e 9811 563e
000001b0: a57a 76be 72ac 71be f81a 823e 7b5d 99be
000001c0: d623 633e 82fa de3e 2c86 823e bbc7 9b3b
000001d0: c72b 4abe 2cdb 753e 48c4 31bd 3597 28be
000001e0: cace b6be 406e cc3e 8a78 4bbe d55d 91be
000001f0: dce1 8cbe 3fba fb3c 182f 6f3e eebc 6e3e
-0.19149809 -0.21582685 -0.23709004 0.349506 -0.2181128 -0.058711495 0.23106344 -0.26553053
-0.2027096 0.048969097 -0.1924769 0.18933253 -0.20804642 -0.0008230326 0.015996108 -0.250607
-0.054079097 0.5084613 -0.22012226 0.24087133 -0.2496016 0.21441466 -0.021610375 -0.1891243
0.21429701 0.21127458 0.07162106 0.18928659 -0.022698123 0.19521622 1.7506268 0.20807275
0.22740413 0.029228495 -0.16858731 0.053393688 0.23556343 -0.25306833 0.22680478 -0.006341893
0.1898437 0.04063165 -0.17334928 -0.3320578 -0.30191973 -0.041546028 0.08433188 0.0066830087
0.22871238 -0.20341781 0.23388508 -0.1781543 0.10071675 -0.38856053 0.20666605 0.0319473
0.16229616 -0.076948054 0.1753515 -0.3417538 -0.38687184 -0.054183718 -0.29654458 0.2243989
0.17046572 0.21922034 0.18724939 -0.19078022 0.018288208 1.1425847 -0.27014875 -0.22555101
0.20251922 0.064190894 0.052146737 -0.017705414 -0.27537134 0.04931269 0.19455121 -0.03369427
0.27596152 -0.0148296775 -0.28568965 -0.18742011 0.18845275 -0.29519495 0.0030267353 -0.04347792
-0.27972108 0.050509185 -0.17095166 -0.27045023 0.22534092 0.029327955 -0.2532971 -0.18795559
-0.3834617 0.17046547 0.06231951 0.16705166 0.17383166 0.028764008 0.21949142 0.0063410583
-0.25358725 -0.04096605 0.22299558 0.20905149 -0.24070223 -0.23600939 0.254112 -0.29954132
0.22181639 0.43550497 0.2549299 0.0047540343 -0.19743262 0.24009389 -0.04340008 -0.16463931
-0.35704643 0.39927864 -0.19870201 -0.283919 -0.27516067 0.030728457 0.23357809 0.23314258
